…
stopped on epoch around 17 and resulted in a final loss
of 2.962 for the generator and 0.642 for the discriminator.
Generator has a total of 46,302,126 parameters, all of which
are trainable. Discriminator has a total of 287,169 parameters,
all of which is trainable. Loss in generator means that the
structure prediction is improving over time and the discriminator is trying to discriminate between the decoy and the nondecoy structure generation. Functional annotation generation
is robust enough against adversarial attacks.
Layer type Output Shape Param #
Dense (1169792) 45621888
LeakyReLU (1169792) 0
Reshape (37, 26, 32, 38) 0
Conv3DTranspose (37, 26, 32, 38) 92454
LeakyReLU (37, 26, 32, 38) 0
Conv3DTranspose (37, 26, 32, 38) 92454
LeakyReLU (37, 26, 32, 38) 495330
TABLE II: Model Architecture for generator. Generator has
a total of 46,302,126 parameters, of which 46,302,126 is
trainable and 0 is non-trainable.
IV. CONCLUSION AND FUTURE WORK
Fig. 2: DCGAN training cycle.
Two optimization steps were included in order to alleviate
the computational load of the DCGAN. First, the feature
space was trimmed from the 70x70x70 A window down to ˚
the smallest possible rectangular prism grid without removing
…
